src/gru_model.onnx (onnx, 8148 bytes, 11 tensors)

batch_norm.weight f4 [8]
0.96233696 0.99952525 0.9539704 0.9967244 0.9581039 1.0349094 1.0 0.9947596
00000000: b75b 763f e3e0 7f3f 6737 743f 5529 7f3f
00000010: 4c46 753f e977 843f 0000 803f 91a8 7e3f

batch_norm.bias f4 [8]
-0.0017627784 -0.0021412482 -0.051067982 0.017179241 -0.034796085 0.012977856 0.005586267 0.05177644
00000000: 070d e7ba 2f54 0cbb a92c 51bd 7bbb 8c3c
00000010: 5786 0ebd 13a1 543c 010d b73b 8813 543d

batch_norm.running_mean f4 [8]
0.47830433 0.58141524 0.2045125 0.53667855 0.5599289 0.73174363 0.0 0.48134205
00000000: 4ee4 f43e a1d7 143f ba6b 513e c463 093f
00000010: 8057 0f3f 8d53 3b3f 0000 0000 7772 f63e

batch_norm.running_var f4 [8]
0.09141413 0.18564403 0.04130506 0.23209354 0.24340965 0.08747518 2.6561329e-05 0.040631436
00000000: 5537 bb3d 7819 3e3e 7f2f 293d eea9 6d3e
00000010: 6140 793e 3026 b33d 05d0 de37 266d 263d

fc.0.weight f4 [1, 8]
-0.14207207 0.24338813 0.23992907 0.07970528 0.029691149 -0.26353076 -0.017591348 0.30011192
00000000: 577b 11be bd3a 793e f7af 753e 863c a33d
00000010: da3a f33c 81ed 86be bb1b 90bc 45a8 993e

onnx::GRU_196 f4 [1, 24, 8]
0.07283582 -0.048164807 0.29662722 -0.1998147 -0.21233624 -0.20067124 0.35367495 0.16168983
0.3581036 -0.27554524 -0.3596394 -0.29505944 -0.22787262 0.12849762 0.087121926 0.25795528
-0.23563324 -0.15425558 0.25026068 -0.08549873 0.26815957 -0.027939025 0.2603098 -0.30923843
-0.08557066 0.046655614 -0.014067504 -0.16397898 0.14112963 0.16452877 -0.3159188 -0.12985025
0.35429958 -0.10674668 -0.15276498 -0.37330386 -0.22692972 0.05728154 -0.021098545 -0.24013583
0.010692495 -0.27392074 -0.30889684 -0.20644191 -0.33852535 -0.23694605 0.33680522 0.031616207
0.07923928 -0.28073177 -0.20564362 -0.08017679 0.09458278 -0.27292436 -0.14732012 -0.1738926
0.032989964 -0.105911374 -0.034520503 -0.26785505 -0.26792455 -0.23334537 -0.110561 -0.29999226
0.25849968 0.23405771 -0.13086696 0.2645522 -0.1393287 0.008583137 -0.20883247 0.21304135
0.3377225 -0.29917562 0.2819836 0.039170083 0.22984786 0.017449534 0.12807153 -0.04808113
0.24869335 0.0628046 -0.14549406 0.108875684 -0.15327874 -0.028183043 -0.09591352 0.25212568
-0.21602008 -0.13770431 -0.04217156 -0.16662198 0.07550165 -0.30064437 0.3424879 -0.3726473
0.2931544 0.044495855 -0.10303664 0.22242875 0.07012908 0.28933913 0.025035735 -0.15720892
0.14453638 -0.09413521 0.13308547 0.31585997 0.21734995 -0.14288557 0.2374744 0.053315282
0.18871315 -0.24302794 -0.35771522 -0.16192725 -0.28599635 0.276477 0.07249347 0.15175843
0.093951 -0.023044065 0.26857856 -0.26381713 0.0069373096 -0.25659478 0.083935626 -0.087446555
0.29481864 -0.11514785 0.2606486 0.06016636 -0.35065642 0.19175997 -0.11568637 -0.14417104
-0.26815784 -0.36596587 0.07118202 -0.11857538 0.090878256 -0.3343568 0.23628592 -0.26632062
-0.029209021 0.02183503 0.12814558 0.22698057 0.26407552 -0.3389961 0.04142582 -0.1626226
-0.11025005 -0.25920767 0.27460808 -0.2832065 0.17232268 0.09669646 0.13324435 -0.12357241
0.29772478 0.05546916 0.020970419 -0.3281919 0.12800096 -0.071047895 -0.1969564 0.33838338
0.06818982 -0.2119845 -0.170503 -0.027394444 0.19698463 -0.09382235 -0.22872806 -0.09103996
-0.26259148 0.10518749 0.2648579 -0.3427879 0.08360803 0.18275556 0.027572207 -0.11378846
0.16857883 0.16644195 0.11562702 -0.073829904 -0.10414577 0.028681291 -0.09656679 -0.07342757
00000000: f22a 953d 7648 45bd 86df 973e 3a9c 4cbe
00000010: ac6e 59be c37c 4dbe e214 b53e 0592 253e
00000020: 5b59 b73e 4414 8dbe a822 b8be 0812 97be
00000030: 7157 69be e194 033e fb6c b23d b712 843e
00000040: d749 71be 2df5 1dbe 2b22 803e f519 afbd
00000050: 364c 893e 62e0 e4bc 5347 853e 8054 9ebe
00000060: ac3f afbd f519 3f3d 637b 66bc 1bea 27be
00000070: 4984 103e 3b7a 283e 1cc0 a1be 77f7 04be
00000080: c166 b53e 019e dabd 6c6e 1cbe af21 bfbe
00000090: 4460 68be 0ca0 6a3d dbd6 acbc 2be6 75be
000000a0: 932f 2f3c 573f 8cbe ba27 9ebe 8265 53be
000000b0: 3253 adbe fca1 72be bc71 ac3e ff7f 013d
000000c0: 3448 a23d 13bc 8fbe 3e94 52be bb33 a4bd
000000d0: 9eb4 c13d bebc 8bbe 16db 16be e710 32be
000000e0: 7c20 073d 10e8 d8bd 5f65 0dbd 4c24 89be
000000f0: 682d 89be 17f2 6ebe ce6d e2bd 9698 99be
00000100: 125a 843e d3ac 6f3e fd01 06be 6373 873e
00000110: 2fac 0ebe 49a0 0c3c 2ed8 55be 8327 5a3e
00000120: f7e9 ac3e 8c2d 99be 2860 903e cf70 203d
00000130: 3d5d 6b3e 53f2 8e3c 2f25 033e b8f0 44bd
00000140: 78a9 7e3e b39f 803d 65fc 14be 37fa de3d
00000150: 1af5 1cbe 20e0 e6bc 4f6e c4bd 9e16 813e
00000160: 5e34 5dbe 5c02 0dbe 16bc 2cbd f49e 2abe
00000170: 9ca0 9a3d 0fee 99be 935a af3e a0cb bebe
00000180: 5518 963e 4941 363d e004 d3bd 5dc4 633e
00000190: d69f 8f3d 4224 943e be17 cd3c 60fb 20be
000001a0: 5801 143e f6c9 c0bd 8f47 083e 66b8 a13e
000001b0: fc90 5e3e 9850 12be 7d2c 733e 2061 5a3d
000001c0: 053e 413e 51dc 78be 7326 b7be 42d0 25be
000001d0: 1d6e 92be 658e 8d3e 7577 943d 9066 1b3e
000001e0: 6269 c03d e8c6 bcbc 2183 893e 0a13 87be
000001f0: 5f52 e33b 6460 83be 71e6 ab3d 2e17 b3bd
00000200: 78f2 963e a3d2 ebbd bc73 853e 0071 763d
00000210: 3d89 b3be ba5c 443e faec ecbd 93a1 13be
00000220: fc4b 89be e15f bbbe e1c7 913d a6d7 f2bd
00000230: 611e ba3d d130 abbe f0f4 713e 2d5b 88be
00000240: c247 efbc 60df b23c 9838 033e 986d 683e
00000250: e834 873e e690 adbe 1fae 293d 8a86 26be
00000260: c7ca e1bd deb6 84be 6e99 8c3e 7100 91be
00000270: 5b75 303e cb08 c63d 3571 083e 8813 fdbd
00000280: 626f 983e a133 633d 28ca ab3c c508 a8be
00000290: af12 033e 8f81 91bd f0ae 49be 9640 ad3e
000002a0: 1ba7 8b3d 7712 59be 5798 2ebe 506a e0bc
000002b0: 57b6 493e ef25 c0bd b037 6abe 2973 babd
000002c0: 6472 86be 8a6c d73d 749b 873e e581 afbe
000002d0: b03a ab3d 4624 3b3e 1cdf e13c ed09 e9bd
000002e0: ee9f 2c3e c26f 2a3e dccd ec3d 2234 97bd
000002f0: 614a d5bd 07f5 ea3c cfc4 c5bd 3261 96bd

onnx::GRU_197 f4 [1, 24, 8]
0.23196031 -0.27598432 0.14447846 0.12507372 0.29042244 -0.2976026 0.21724696 -0.13730699
0.14600493 0.30883488 -0.049129687 -0.009667319 -0.047520023 -0.2694932 0.15315506 -0.3131155
0.20136648 0.32482252 0.4017491 -0.119875155 -0.37318897 -0.0004104265 0.26082182 -0.41689724
-0.09325456 -0.14930236 -0.004250509 -0.09187737 -0.09311497 -0.05293001 -0.2610116 0.28244033
0.3211492 -0.086592525 -0.026171766 -0.15738295 -0.29967114 -0.36527222 0.11101589 -0.1848424
-0.22533928 -0.015401396 -0.12348538 -0.10041491 0.018039843 -0.058397062 -0.11912165 -0.14163986
-0.29931316 0.30538225 -0.0695745 0.09671049 -0.1852508 0.0010827485 0.3470907 0.12044119
-0.28273547 0.11339532 0.36820406 0.08607218 0.18334539 0.32370064 -0.05711895 0.090552874
0.15716425 0.27831072 -0.10325662 -0.13032345 0.07537936 0.032047126 0.056606814 0.0943791
-0.39501935 -0.19048785 0.2572612 0.12139039 0.022633422 -0.17037089 -0.24488817 -0.29196554
-0.10264895 0.1448316 0.23367904 0.14372784 -0.3742411 -0.26319796 -0.06584056 0.31023103
0.1050577 -0.13390604 0.18730095 -0.08242616 -0.26609376 0.21549384 -0.16269596 -0.037304156
-0.3119696 0.2779123 0.29809043 0.16094351 -0.26224768 -0.3313563 -0.26055965 0.29710326
0.1912529 0.28722227 0.18653823 0.08718675 0.0079917535 -0.2719788 -0.33184034 -0.31543076
0.15940347 -0.15835392 -0.07762919 -0.15942684 -0.028823823 -0.2280908 -0.20240344 0.13022318
-0.12139326 0.23112613 -0.12631115 -0.23325077 -0.07371378 -0.15745975 -0.088548094 -0.3545431
-0.28218624 -0.0715461 0.21422128 0.15539521 -0.18321478 -0.24046782 -0.25977567 -0.33420223
-0.26842874 -0.13437547 0.19607104 0.03322235 -0.22636229 -0.2601236 0.14828914 -0.23959939
-0.082225755 0.13411804 -0.22203268 -0.06499201 0.030550092 -0.03460084 -0.21443695 -0.2801815
-0.3481829 -0.13813268 0.31517443 -0.22168992 -0.28321728 0.052943062 0.13465954 0.13819423
0.24400583 0.21521536 -0.37198618 0.056872826 0.20309131 -0.010262907 -0.18585642 0.31410795
-0.14739713 -0.1863013 -0.33897015 0.032356415 0.17370978 0.091642745 0.081838384 -0.27699506
-0.3383517 0.006321814 0.31859466 0.22487314 -0.18596092 -0.027275473 -0.24967185 -0.17326754
0.045173224 0.20421588 0.27938014 -0.29974112 0.23078433 -0.22951493 0.15331288 0.2838448
00000000: 0187 6d3e d14d 8dbe 29f2 133e 5313 003e
00000010: 40b2 943e 5e5f 98be fd75 5e3e 349a 0cbe
00000020: 5182 153e 9b1f 9e3e 363c 49bd ad63 1ebc
00000030: 5ba4 42bd 03fb 89be aed4 1c3e ad50 a0be
00000040: 0433 4e3e 234f a63e 0fb2 cd3e 1b81 f5bd
00000050: a012 bfbe 832e d7b9 708a 853e 8e73 d5be
00000060: 3ffc bebd b8e2 18be db47 8bbb 342a bcbd
00000070: 10b3 bebd 23cd 58bd 50a3 85be 059c 903e
00000080: ab6d a43e 6c57 b1bd 2c66 d6bc ff28 21be
00000090: 7f6e 99be f604 bbbe 4d5c e33d 5347 3dbe
000000a0: 57bf 66be 2356 7cbc e7e5 fcbd 55a6 cdbd
000000b0: 4bc8 933c c231 6fbd 0df6 f3bd 0a0a 11be
000000c0: 933f 99be 105b 9c3e 137d 8ebd 2610 c63d
000000d0: 63b2 3dbe 03eb 8d3a dfb5 b13e dfa9 f63d
000000e0: b4c2 90be ce3b e83d 3e85 bc3e 9c46 b03d
000000f0: e5be 3b3e 17bc a53e 8ff5 69bd c973 b93d
00000100: aaef 203e be7e 8e3e 3578 d3bd 8373 05be
00000110: 7e60 9a3d d943 033d 8cdc 673d d449 c13d
00000120: fa3f cabe 3f0f 43be bdb7 833e 869b f83d
00000130: ba69 b93c b575 2ebe f7c3 7abe 827c 95be
00000140: 9d39 d2bd bc4e 143e 8f49 6f3e 642d 133e
00000150: 889c bfbe e2c1 86be 6ad7 86bd 9ad6 9e3e
00000160: 7e28 d73d aa1e 09be d2cb 3f3e 0ccf a8bd
00000170: 713d 88be 6baa 5c3e c599 26be 3ecc 18bd
00000180: 7bba 9fbe 854a 8e3e 4f9f 983e 60ce 243e
00000190: 5445 86be 88a7 a9be 1368 85be eb1d 983e
000001a0: cdd7 433e cc0e 933e e103 3f3e f78e b23d
000001b0: d8ef 023c ce40 8bbe fae6 a9be 2480 a1be
000001c0: aa3a 233e 8827 22be 0efc 9ebd ca40 23be
000001d0: f01f ecbc a290 69be d942 4fbe 3a59 053e
000001e0: 089d f8bd 54ac 6c3e b657 01be 4ad9 6ebe
000001f0: 40f7 96bd 213d 21be b458 b5bd ac86 b5be
00000200: b77a 90be c386 92bd d35c 5b3e ec1f 1f3e
00000210: a89c 3bbe 323d 76be 5101 85be 8e1c abbe
00000220: 7e6f 89be b999 09be d9c6 483e 2914 083d
00000230: 84cb 67be ec2e 85be 1cd9 173e 8b59 75be
00000240: fa65 a8bd 3d56 093e 895c 63be 881a 85bd
00000250: 3044 fa3c 9cb9 0dbd 5c95 5bbe f373 8fbe
00000260: 0745 b2be a772 0dbe 8b5e a13e af02 63be
00000270: db01 91be d3da 583d 31e4 093e ca82 0d3e
00000280: aadc 793e 6a61 5c3e f974 bebe 7bf3 683d
00000290: 2bf7 4f3e c025 28bc 2551 3ebe c2d2 a03e
000002a0: 46ef 16be c5c5 3ebe 7f8d adbe 2988 043d
000002b0: fae0 313e 31af bb3d e29a a73d 4cd2 8dbe
000002c0: 6f3c adbe 3827 cf3b d71e a33e 2545 663e
000002d0: 8a6c 3ebe d070 dfbc faa9 7fbe 0c6d 31be
000002e0: 8f07 393d f81d 513e ea0a 8f3e ab77 99be
000002f0: ba52 6c3e f605 6bbe 0dfe 1c3e 1b54 913e

onnx::GRU_198 f4 [1, 48]
0.2728242 0.13289139 0.19951554 -0.26244974 -0.26733613 0.026319275 0.105005726 -0.15338504
-0.023354182 0.28155094 -0.23418659 -0.08807956 0.18967022 -0.030361025 -0.10570656 -0.16324522
-0.10474884 0.22403093 -0.012942461 0.031308565 -0.111030824 -0.33674812 -0.3552765 -0.19012308
-0.115297005 0.089417554 -0.14934447 -0.29488486 0.0025841137 -0.14123723 -0.26478884 0.2195681
-0.20803767 0.07003571 -0.035864186 -0.09135449 0.32054746 0.16981769 0.218715 -0.18704681
0.27411774 0.041998267 -0.098415345 -0.27527925 -0.15233098 0.07342702 0.14652734 -0.066604845
00000000: 9daf 8b3e ae14 083e cd4d 4c3e d05f 86be
00000010: 48e0 88be 859b d73c 3e0d d73d f810 1dbe
00000020: 4551 bfbc 7227 903e 9cce 6fbe 0e63 b4bd
00000030: e938 423e afb7 f8bc ae7c d8bd c129 27be
00000040: 8f86 d6bd 5d68 653e 9e0c 54bc 693d 003d
00000050: 2164 e3bd 406a acbe cde6 b5be a0af 42be
00000060: d620 ecbd 8d20 b73d c2ed 18be 26fb 96be
00000070: 3c5a 293b 7ea0 10be 6792 87be 76d6 603e
00000080: d407 55be e26e 8f3d 53e6 12bd 1018 bbbd
00000090: cc1e a43e b0e4 2d3e d3f6 5f3e 3389 3fbe
000000a0: 2959 8c3e 6006 2c3d fc8d c9bd 67f1 8cbe
000000b0: a7fc 1bbe e860 963d 430b 163e 1f68 88bd

onnx::GRU_216 f4 [1, 24, 8]
0.14257632 0.27779105 -0.059160072 -0.12638038 -0.1949154 -0.22857364 0.11028443 0.23352279
0.23388201 0.14798684 -0.25232366 -0.20825262 -0.12439353 -0.13689733 0.039913625 -0.41319403
0.13545854 -0.2845329 -0.23634146 -0.31107095 0.31181428 -0.37489572 0.2513412 -0.0024851107
-0.0248794 0.2172413 -0.013746873 0.21467532 0.2120324 -0.37193188 0.14392814 0.055709593
0.038627833 0.0651848 0.03495725 -0.16083002 0.037228566 0.40931103 0.18989934 0.06610512
-0.35151455 0.02205438 -0.22281228 0.30053917 -0.23570855 -0.053710293 -0.06188508 0.029241879
0.36003402 0.008826129 0.1951857 0.2724461 0.29926908 -0.0980788 -0.099478975 0.16503389
-0.13388847 0.12805401 -0.091249935 -0.28302315 0.2108491 0.123810366 0.0846619 0.44059178
-0.13177882 0.1907507 -0.29184073 0.21500055 -0.13379315 -0.016932841 -0.07325211 0.04810538
-0.06396988 0.25710574 0.040795438 0.2965872 0.29469332 -0.21467613 -0.24224453 0.2672743
0.2699638 -0.25534657 0.02580101 -0.33471364 -0.3410306 0.042919993 0.115149684 0.026513735
-0.124415874 0.35128653 0.014264174 -0.19356614 -0.009029771 0.11307294 0.14175716 -0.26437294
0.13101396 -0.14820284 -0.27788302 -0.18017593 0.2636466 0.2938924 0.35568997 0.16774498
0.23736764 -0.028120887 -0.21006832 0.18820032 -0.16623122 -0.2180888 -0.09888977 0.05623548
0.1634069 -0.10724207 -0.215306 0.060425743 -0.21892722 -0.22963713 0.20259322 -0.07943278
0.34763253 0.34774986 0.107107386 0.14000192 0.072416544 0.007873873 -0.021465367 0.03398779
0.25500625 0.3165539 -0.024420802 -0.3212691 -0.2199315 -0.22302249 -0.3298811 -0.15676485
-0.28250715 -0.32392466 -0.17143631 -0.33127245 -0.24548614 0.10363267 0.30649906 -0.11299385
-0.10940156 0.19819368 -0.12021135 -0.1511808 0.16515334 -0.33196822 0.06587412 0.2645176
0.029728793 0.11832991 -0.24006827 0.010801571 0.032980092 0.11798461 0.15615068 0.29357198
-0.3361795 0.0403184 -0.23469831 -0.33913177 0.04519555 -0.24416505 0.24144389 0.021741083
-0.16066982 0.17325488 -0.2828467 -0.14283513 -0.0893435 -0.32623577 -0.23506974 -0.03850854
0.25063598 0.3672515 0.21553773 -0.20607594 -0.23837663 0.30507153 0.13945852 -0.009710987
0.012265171 -0.23267776 -0.06558926 0.33774796 -0.1443484 -0.07361382 -0.25282815 -0.2562033
00000000: 87ff 113e a13a 8e3e d551 72bd dc69 01be
00000010: e797 47be 350f 6abe cedc e13d 9920 6f3e
00000020: c47e 6f3e dd89 173e 9130 81be 2d40 55be
00000030: 09c2 febd d02e 0cbe 787c 233d 2b8e d3be
00000040: a5b5 0a3e 4cae 91be 7f03 72be b144 9fbe
00000050: 1fa6 9f3e 55f2 bfbe cbaf 803e 3ddd 22bb
00000060: e2cf cbbc 8174 5e3e 903a 61bc d9d3 5b3e
00000070: 051f 593e db6d bebe e661 133e be2f 643d
00000080: 3838 1e3d 9c7f 853d 552f 0f3d a0b0 24be
00000090: fb7c 183d 3791 d13e f974 423e 1f62 873d
000000a0: b7f9 b3be 63ab b43c e728 64be 45e0 993e
000000b0: 955d 71be 53ff 5bbd 367b 7dbd aa8c ef3c
000000c0: 6156 b83e 789b 103c c3de 473e 0e7e 8b3e
000000d0: cc39 993e 8add c8bd a2bb cbbd a5fe 283e
000000e0: 0f1a 09be 9720 033e 3fe1 babd 69e8 90be
000000f0: d4e8 573e 4a90 fd3d 3863 ad3d 3f95 e13e
00000100: 07f1 06be 2754 433e 266c 95be 1b29 5c3e
00000110: 1201 09be beb6 8abc 3405 96bd 260a 453d
00000120: a402 83bd 5da3 833e 1e19 273d 47da 973e
00000130: 0be2 963e 0fd4 5bbe f30e 78be 2dd8 883e
00000140: b238 8a3e c9bc 82be a45c d33c 965f abbe
00000150: 909b aebe e0cc 2f3d 99d3 eb3d 5533 d93c
00000160: c0cd febd d4db b33e 48b4 693c 3436 46be
00000170: 9bf1 13bc c992 e73d ca28 113e e45b 87be
00000180: 8628 063e 7cc2 17be af46 8ebe 0a80 38be
00000190: b0fc 863e 1179 963e ff1c b63e 57c5 2b3e
000001a0: 8110 733e c65d e6bc 261c 57be 96b7 403e
000001b0: 8438 2abe ac52 5fbe b886 cabd 2d57 663d
000001c0: 2354 273e bba1 dbbd 2d79 5cbe fc80 773d
000001d0: 752e 60be ff25 6bbe 9974 4f3e a7ad a2bd
000001e0: e4fc b13e 450c b23e 1e5b db3d aa5c 0f3e
000001f0: 204f 943d 6b01 013c 23d8 afbc c836 0b3d
00000200: 2e90 823e 5a13 a23e 220e c8bc 627d a4be
00000210: b935 61be 0260 64be 2de6 a8be f786 20be
00000220: c7a4 90be 74d9 a5be 008d 2fbe 8b9c a9be
00000230: b860 7bbe 5e3d d43d 72ed 9c3e 5269 e7bd
00000240: ed0d e0bd 49f3 4a3e 5e31 f6bd 24cf 1abe
00000250: f51d 293e bdf7 a9be 03e9 863d da6e 873e
00000260: cc89 f33c f456 f23d 75d4 75be 13f9 303c
00000270: 2216 073d eaa1 f13d f7e5 1f3e 114f 963e
00000280: b81f acbe e824 253d c154 70be aea2 adbe
00000290: f81e 393d 6706 7abe 113d 773e 5b1a b23c
000002a0: a186 24be ba69 313e 48d1 90be 5f43 12be
000002b0: baf9 b6bd 6008 a7be 1fb6 70be 21bb 1dbd
000002c0: 5c53 803e 6308 bc3e ecb5 5c3e 9205 53be
000002d0: 0119 74be 5632 9c3e 37ce 0e3e d51a 1fbc
000002e0: dbf3 483c 1443 6ebe a953 86bd 4ded ac3e
000002f0: 11d0 13be d8c2 96bd b172 81be 142d 83be

onnx::GRU_217 f4 [1, 24, 8]
-0.33004415 -0.09034445 0.08298646 0.33656585 0.043790586 0.30825534 0.13559297 0.21705197
0.3075094 0.2619171 -0.19833533 0.36526218 0.15428722 -0.19594099 -0.12063827 -0.35036993
0.10329491 -0.30122653 0.15051381 0.13219617 -0.34163496 0.09003435 0.020371748 0.1419865
0.21735197 -0.35465088 0.28804466 0.33306172 0.11013971 -0.33503455 -0.06968273 -0.13567814
-0.14609428 0.2631925 0.18755998 0.19988194 -0.030493643 0.16297483 0.060785513 -0.2351322
-0.3400019 -0.16014117 0.199382 -0.34170002 -0.30273977 0.19655132 0.24629968 0.30606446
-0.27223942 -0.24652432 0.14561765 0.27629456 0.17573988 0.050453115 0.07729649 0.3827974
-0.25279796 -0.16975115 0.25657377 -0.27492955 -0.18082719 0.27939874 0.056333926 0.15935393
-0.02197332 -0.22786294 -0.03342245 0.16149779 -0.35550973 0.090842195 -0.22765456 -0.19472393
0.13038671 0.2591455 -0.1399573 -0.13305451 -0.35321617 -0.22618754 -0.26584855 -0.09078303
0.0704379 -0.32041368 0.26653707 0.22434899 -0.35272354 -0.19349144 0.15224466 -0.07342659
-0.050292056 -0.1435119 0.3311792 -0.2154714 0.32869193 0.038324445 0.03924397 0.28481779
-0.0013784247 -0.18666093 -0.0960263 0.29878774 -0.28491488 0.09417349 -0.29180932 0.18648078
0.10899044 0.027633633 0.17118666 -0.01402303 0.22941333 -0.2637574 -0.07929347 0.16406032
0.35256538 0.18848868 -0.2097019 0.27011412 -0.058809716 -0.065393105 -0.3242913 -0.06382717
0.26211545 0.0461892 -0.18939945 0.10804961 -0.12722516 0.3158406 -0.30184838 -0.08995093
-0.15584622 -0.018745339 0.3223166 -0.20074052 -0.01185898 0.16434681 -0.24252018 0.3321835
-0.18535835 -0.10495465 -0.12556343 -0.22478172 -0.3765386 0.15663481 0.13099603 -0.33644775
-0.2273499 0.36224002 0.09109615 0.14148791 -0.21387957 -0.17343664 -0.022786887 -0.062670685
-0.26997906 0.046620622 0.074094996 -0.06381388 0.0890618 -0.1263745 0.055954993 0.1435733
-0.18105477 -0.30920947 0.2634432 0.01836843 -0.1044709 0.4014293 -0.25047356 0.27448693
0.18484013 -0.31186953 0.19597124 -0.30698422 -0.23072869 -0.083442844 -0.19576846 0.33534124
-0.06630983 0.14666957 -0.2583186 0.20476565 -0.09071176 -0.25633225 0.04873623 0.15872996
0.32505086 -0.2160224 -0.20004725 0.11363338 0.07650594 0.10071657 0.2640508 -0.13641816
00000000: 8cfb a8be 8306 b9bd cef4 a93d 5c52 ac3e
00000010: c25d 333d a5d3 9d3e e2d8 0a3e df42 5e3e
00000020: df71 9d3e 001a 863e 6b18 4bbe a503 bb3e
00000030: 78fd 1d3e c1a4 48be 3311 f7bd b063 b3be
00000040: 488c d33d 5d3a 9abe 4b20 1a3e 6f5e 073e
00000050: c7ea aebe ee63 b83d a7e2 a63c e964 113e
00000060: 8491 5e3e cd94 b5be 977a 933e 1187 aa3e
00000070: ee90 e13d a689 abbe d2b5 8ebd 36ef 0abe
00000080: bd99 15be 2bc1 863e b90f 403e daad 4c3e
00000090: cecd f9bc e0e2 263e 3bfa 783d 7fc6 70be
000000a0: bb14 aebe 0cfc 23be cc2a 4c3e 4ef3 aebe
000000b0: b500 9bbe c044 493e fc35 7c3e 7bb4 9c3e
000000c0: f762 8bbe df70 7cbe cb1c 153e 7b76 8d3e
000000d0: 28f5 333e eda7 4e3d 9f4d 9e3d 05fe c33e
000000e0: bc6e 81be 3fd3 2dbe a35d 833e 91c3 8cbe
000000f0: c32a 39be 5a0d 8f3e 67be 663d ad2d 233e
00000100: 6401 b4bc e754 69be fbe5 08bd ad5f 253e
00000110: 5f05 b6be 790b ba3d 471e 69be b665 47be
00000120: 1884 053e b8ae 843e f750 0fbe 713f 08be
00000130: c0d8 b4be b59d 67be 4d1d 88be 74ec b9bd
00000140: bf41 903d 430d a4be 8c77 883e bebb 653e
00000150: 2e98 b4be 9f22 46be 06e6 1b3e ae60 96bd
00000160: 0bff 4dbd c9f4 12be 5290 a93e 89a4 5cbe
00000170: 4f4a a83e 18fa 1c3d 49be 203d a3d3 913e
00000180: 42ac b4ba 0b24 3fbe 70a9 c4bd b5fa 983e
00000190: 5de0 91be 08de c03d 0868 95be d1f4 3e3e
000001a0: 6136 df3d ee5f e23c 8e4b 2f3e dac0 65bc
000001b0: 54eb 6a3e 360b 87be 9d64 a2bd 6eff 273e
000001c0: 7383 b43e 2d03 413e 18bc 56be 664c 8a3e
000001d0: 75e2 70bd d2ec 85bd 8209 a6be d2b7 82bd
000001e0: ff33 863e e330 3d3d eef1 41be 1d49 dd3d
000001f0: 5047 02be dcb5 a13e df8b 9abe 3138 b8bd
00000200: 2796 1fbe d38f 99bc ae06 a53e ec8e 4dbe
00000210: 2b4c 42bc 884a 283e 3657 78be f513 aa3e
00000220: 94ce 3dbe 77f2 d6bd b393 00be 2e2d 66be
00000230: abc9 c0be e064 203e d323 063e e142 acbe
00000240: 6ace 68be 8677 b93e 9e90 ba3d 35e2 103e
00000250: 3f03 5bbe 6099 31be 91ab babc 7d59 80bd
00000260: b23a 8abe 44f5 3e3d 1ebf 973d dab0 82bd
00000270: 0866 b63d 5168 01be 1031 653d e104 133e
00000280: 6c66 39be b450 9ebe 07e2 863e 6479 963c
00000290: d7f4 d5bd 2488 cd3e 123e 80be 8d89 8c3e
000002a0: bb46 3d3e 5dad 9fbe afac 483e 092d 9dbe
000002b0: 2444 6cbe 15e4 aabd 8777 48be d9b1 ab3e
000002c0: 73cd 87bd 8c30 163e 5642 84be 16ae 513e
000002d0: 16c7 b9bd fb3d 83be a49f 473d 1b8a 223e
000002e0: 116d a63e fa34 5dbe 30d9 4cbe 9eb8 e83d
000002f0: 25af 9c3d 7d44 ce3d ab31 873e 34b1 0bbe

onnx::GRU_218 f4 [1, 48]
-0.08994016 0.075931534 0.24053259 -0.15401438 0.11425269 -0.12298601 0.20226927 -0.042055625
0.21142162 0.28033945 -0.08290631 0.22663559 0.1833936 0.2926007 -0.20657098 -0.18386506
-0.29858205 -0.18258803 -0.24943854 0.14794928 -0.30759588 -0.0080726845 0.07388564 -0.14395426
0.17848496 0.3821332 0.15518202 -0.09147259 -0.39381745 0.13177879 -0.18648642 0.15464513
0.11698758 -0.3255503 -0.2435208 -0.3452654 -0.09628711 -0.14805107 0.04497068 -0.074654475
0.24772902 0.14766048 0.33786494 0.309165 0.0073435805 -0.23564675 0.3134669 -0.11758332
00000000: 8c32 b8bd fe81 9b3d 2d4e 763e f2b5 1dbe
00000010: 50fd e93d 17e0 fbbd ad1f 4f3e 8542 2cbd
00000020: e97e 583e a788 8f3e c9ca a9bd 2913 683e
00000030: 88cb 3b3e c2cf 953e 5887 53be 1f47 3cbe
00000040: bfdf 98be 5bf8 3abe d16c 7fbe 0480 173e
00000050: 357d 9dbe 4b43 04bc 5b51 973d bf68 13be
00000060: c3c4 363e f6a6 c33e 09e8 1e3e fb55 bbbd
00000070: 71a2 c9be 05f1 063e 4cf6 3ebe 4b5b 1e3e
00000080: 2f97 ef3d 87ae a6be 845d 79be a0c6 b0be
00000090: 2d32 c5bd b39a 17be 2d33 383d 72e4 98bd
000000a0: adac 7d3e 4f34 173e a2fc ac3e e04a 9e3e
000000b0: 6ba2 f03b 624d 71be bc7e a03e 86cf f0bd
